…
2021-02-20 10:28:05.099556: W tensorflow/core/framework/cpu_allocator_impl.cc:80] Allocation of 3600000000 exceeds 10% of free system memory.
2021-02-20 10:28:06.866198: W tensorflow/core/framework/cpu_allocator_impl.cc:80] Allocation of 3600000000 exceeds 10% of free system memory.
2021-02-20 10:28:07.245973: W tensorflow/core/framework/cpu_allocator_impl.cc:80] Allocation of 3600000000 exceeds 10% of free system memory.
Model: "sequential"
_________________________________________________________________
Layer (type)                 Output Shape              Param #
=================================================================
embedding (Embedding)        (None, 52, 300)           900000000
_________________________________________________________________
conv1d (Conv1D)              (None, 50, 64)            57664
_________________________________________________________________
average_pooling1d (AveragePo (None, 25, 64)            0
_________________________________________________________________
batch_normalization (BatchNo (None, 25, 64)            256
_________________________________________________________________
conv1d_1 (Conv1D)            (None, 23, 32)            6176
_________________________________________________________________
lstm (LSTM)                  (None, 32)                8320
_________________________________________________________________
batch_normalization_1 (Batch (None, 32)                128
_________________________________________________________________
dropout (Dropout)            (None, 32)                0
_________________________________________________________________
dense (Dense)                (None, 128)               4224
_________________________________________________________________
dropout_1 (Dropout)          (None, 128)               0
_________________________________________________________________
dense_1 (Dense)              (None, 128)               16512
_________________________________________________________________
dropout_2 (Dropout)          (None, 128)               0
_________________________________________________________________
dense_2 (Dense)              (None, 64)                8256
_________________________________________________________________
dropout_3 (Dropout)          (None, 64)                0
_________________________________________________________________
dense_3 (Dense)              (None, 64)                4160
_________________________________________________________________
dropout_4 (Dropout)          (None, 64)                0
_________________________________________________________________
dense_4 (Dense)              (None, 32)                2080
_________________________________________________________________
dropout_5 (Dropout)          (None, 32)                0
_________________________________________________________________
dense_5 (Dense)              (None, 5)                 165
=================================================================
Total params: 900,107,941
Trainable params: 107,749
Non-trainable params: 900,000,192
_________________________________________________________________
2021-02-20 10:28:54.067993: I tensorflow/compiler/mlir/mlir_graph_optimization_pass.cc:116] None of the MLIR optimization passes are enabled (registered 2)
2021-02-20 10:28:56.383647: I tensorflow/stream_executor/platform/default/dso_loader.cc:49] Successfully opened dynamic library cublas64_11.dll
…
