…
2021-02-24 14:59:33.479269: W tensorflow/core/framework/cpu_allocator_impl.cc:80] Allocation of 3600000000 exceeds 10% of free system memory.
Model: "model"
__________________________________________________________________________________________________
Layer (type)                    Output Shape         Param #     Connected to
==================================================================================================
input_1 (InputLayer)            [(None, 52)]         0
__________________________________________________________________________________________________
embedding (Embedding)           (None, 52, 300)      900000000   input_1[0][0]
__________________________________________________________________________________________________
lstm (LSTM)                     (None, 64)           93440       embedding[0][0]
__________________________________________________________________________________________________
bidirectional (Bidirectional)   (None, 64)           85248       embedding[0][0]
__________________________________________________________________________________________________
lstm_2 (LSTM)                   (None, 64)           93440       embedding[0][0]
__________________________________________________________________________________________________
bidirectional_1 (Bidirectional) (None, 64)           85248       embedding[0][0]
__________________________________________________________________________________________________
lstm_4 (LSTM)                   (None, 64)           93440       embedding[0][0]
__________________________________________________________________________________________________
bidirectional_2 (Bidirectional) (None, 64)           85248       embedding[0][0]
__________________________________________________________________________________________________
lstm_6 (LSTM)                   (None, 64)           93440       embedding[0][0]
__________________________________________________________________________________________________
bidirectional_3 (Bidirectional) (None, 64)           85248       embedding[0][0]
__________________________________________________________________________________________________
batch_normalization (BatchNorma (None, 64)           256         lstm[0][0]
__________________________________________________________________________________________________
batch_normalization_1 (BatchNor (None, 64)           256         bidirectional[0][0]
__________________________________________________________________________________________________
batch_normalization_2 (BatchNor (None, 64)           256         lstm_2[0][0]
__________________________________________________________________________________________________
batch_normalization_3 (BatchNor (None, 64)           256         bidirectional_1[0][0]
__________________________________________________________________________________________________
batch_normalization_4 (BatchNor (None, 64)           256         lstm_4[0][0]
__________________________________________________________________________________________________
batch_normalization_5 (BatchNor (None, 64)           256         bidirectional_2[0][0]
__________________________________________________________________________________________________
batch_normalization_6 (BatchNor (None, 64)           256         lstm_6[0][0]
__________________________________________________________________________________________________
batch_normalization_7 (BatchNor (None, 64)           256         bidirectional_3[0][0]
__________________________________________________________________________________________________
dropout (Dropout)               (None, 64)           0           batch_normalization[0][0]
__________________________________________________________________________________________________
dropout_6 (Dropout)             (None, 64)           0           batch_normalization_1[0][0]
__________________________________________________________________________________________________
dropout_12 (Dropout)            (None, 64)           0           batch_normalization_2[0][0]
__________________________________________________________________________________________________
dropout_18 (Dropout)            (None, 64)           0           batch_normalization_3[0][0]
__________________________________________________________________________________________________
dropout_24 (Dropout)            (None, 64)           0           batch_normalization_4[0][0]
__________________________________________________________________________________________________
dropout_30 (Dropout)            (None, 64)           0           batch_normalization_5[0][0]
__________________________________________________________________________________________________
dropout_36 (Dropout)            (None, 64)           0           batch_normalization_6[0][0]
__________________________________________________________________________________________________
dropout_42 (Dropout)            (None, 64)           0           batch_normalization_7[0][0]
__________________________________________________________________________________________________
dense (Dense)                   (None, 128)          8320        dropout[0][0]
__________________________________________________________________________________________________
dense_5 (Dense)                 (None, 128)          8320        dropout_6[0][0]
__________________________________________________________________________________________________
dense_13 (Dense)                (None, 128)          8320        dropout_12[0][0]
__________________________________________________________________________________________________
dense_18 (Dense)                (None, 128)          8320        dropout_18[0][0]
__________________________________________________________________________________________________
dense_26 (Dense)                (None, 128)          8320        dropout_24[0][0]
__________________________________________________________________________________________________
dense_31 (Dense)                (None, 128)          8320        dropout_30[0][0]
__________________________________________________________________________________________________
dense_39 (Dense)                (None, 128)          8320        dropout_36[0][0]
__________________________________________________________________________________________________
dense_44 (Dense)                (None, 128)          8320        dropout_42[0][0]
__________________________________________________________________________________________________
dropout_1 (Dropout)             (None, 128)          0           dense[0][0]
__________________________________________________________________________________________________
dropout_7 (Dropout)             (None, 128)          0           dense_5[0][0]
__________________________________________________________________________________________________
dropout_13 (Dropout)            (None, 128)          0           dense_13[0][0]
__________________________________________________________________________________________________
dropout_19 (Dropout)            (None, 128)          0           dense_18[0][0]
__________________________________________________________________________________________________
dropout_25 (Dropout)            (None, 128)          0           dense_26[0][0]
__________________________________________________________________________________________________
dropout_31 (Dropout)            (None, 128)          0           dense_31[0][0]
__________________________________________________________________________________________________
dropout_37 (Dropout)            (None, 128)          0           dense_39[0][0]
__________________________________________________________________________________________________
dropout_43 (Dropout)            (None, 128)          0           dense_44[0][0]
__________________________________________________________________________________________________
dense_1 (Dense)                 (None, 128)          16512       dropout_1[0][0]
__________________________________________________________________________________________________
dense_6 (Dense)                 (None, 128)          16512       dropout_7[0][0]
__________________________________________________________________________________________________
dense_14 (Dense)                (None, 128)          16512       dropout_13[0][0]
__________________________________________________________________________________________________
dense_19 (Dense)                (None, 128)          16512       dropout_19[0][0]
__________________________________________________________________________________________________
dense_27 (Dense)                (None, 128)          16512       dropout_25[0][0]
__________________________________________________________________________________________________
dense_32 (Dense)                (None, 128)          16512       dropout_31[0][0]
__________________________________________________________________________________________________
dense_40 (Dense)                (None, 128)          16512       dropout_37[0][0]
__________________________________________________________________________________________________
dense_45 (Dense)                (None, 128)          16512       dropout_43[0][0]
__________________________________________________________________________________________________
dropout_2 (Dropout)             (None, 128)          0           dense_1[0][0]
__________________________________________________________________________________________________
dropout_8 (Dropout)             (None, 128)          0           dense_6[0][0]
__________________________________________________________________________________________________
dropout_14 (Dropout)            (None, 128)          0           dense_14[0][0]
__________________________________________________________________________________________________
dropout_20 (Dropout)            (None, 128)          0           dense_19[0][0]
__________________________________________________________________________________________________
dropout_26 (Dropout)            (None, 128)          0           dense_27[0][0]
__________________________________________________________________________________________________
dropout_32 (Dropout)            (None, 128)          0           dense_32[0][0]
__________________________________________________________________________________________________
dropout_38 (Dropout)            (None, 128)          0           dense_40[0][0]
__________________________________________________________________________________________________
dropout_44 (Dropout)            (None, 128)          0           dense_45[0][0]
__________________________________________________________________________________________________
dense_2 (Dense)                 (None, 64)           8256        dropout_2[0][0]
__________________________________________________________________________________________________
dense_7 (Dense)                 (None, 64)           8256        dropout_8[0][0]
__________________________________________________________________________________________________
dense_15 (Dense)                (None, 64)           8256        dropout_14[0][0]
__________________________________________________________________________________________________
dense_20 (Dense)                (None, 64)           8256        dropout_20[0][0]
__________________________________________________________________________________________________
dense_28 (Dense)                (None, 64)           8256        dropout_26[0][0]
__________________________________________________________________________________________________
dense_33 (Dense)                (None, 64)           8256        dropout_32[0][0]
__________________________________________________________________________________________________
dense_41 (Dense)                (None, 64)           8256        dropout_38[0][0]
__________________________________________________________________________________________________
dense_46 (Dense)                (None, 64)           8256        dropout_44[0][0]
__________________________________________________________________________________________________
dropout_3 (Dropout)             (None, 64)           0           dense_2[0][0]
__________________________________________________________________________________________________
dropout_9 (Dropout)             (None, 64)           0           dense_7[0][0]
__________________________________________________________________________________________________
dropout_15 (Dropout)            (None, 64)           0           dense_15[0][0]
__________________________________________________________________________________________________
dropout_21 (Dropout)            (None, 64)           0           dense_20[0][0]
__________________________________________________________________________________________________
dropout_27 (Dropout)            (None, 64)           0           dense_28[0][0]
__________________________________________________________________________________________________
dropout_33 (Dropout)            (None, 64)           0           dense_33[0][0]
__________________________________________________________________________________________________
dropout_39 (Dropout)            (None, 64)           0           dense_41[0][0]
__________________________________________________________________________________________________
dropout_45 (Dropout)            (None, 64)           0           dense_46[0][0]
__________________________________________________________________________________________________
dense_3 (Dense)                 (None, 32)           2080        dropout_3[0][0]
__________________________________________________________________________________________________
dense_8 (Dense)                 (None, 64)           4160        dropout_9[0][0]
__________________________________________________________________________________________________
dense_16 (Dense)                (None, 32)           2080        dropout_15[0][0]
__________________________________________________________________________________________________
dense_21 (Dense)                (None, 64)           4160        dropout_21[0][0]
__________________________________________________________________________________________________
dense_29 (Dense)                (None, 32)           2080        dropout_27[0][0]
__________________________________________________________________________________________________
dense_34 (Dense)                (None, 64)           4160        dropout_33[0][0]
__________________________________________________________________________________________________
dense_42 (Dense)                (None, 32)           2080        dropout_39[0][0]
__________________________________________________________________________________________________
dense_47 (Dense)                (None, 64)           4160        dropout_45[0][0]
__________________________________________________________________________________________________
dropout_4 (Dropout)             (None, 32)           0           dense_3[0][0]
__________________________________________________________________________________________________
dropout_10 (Dropout)            (None, 64)           0           dense_8[0][0]
__________________________________________________________________________________________________
dropout_16 (Dropout)            (None, 32)           0           dense_16[0][0]
__________________________________________________________________________________________________
dropout_22 (Dropout)            (None, 64)           0           dense_21[0][0]
__________________________________________________________________________________________________
dropout_28 (Dropout)            (None, 32)           0           dense_29[0][0]
__________________________________________________________________________________________________
dropout_34 (Dropout)            (None, 64)           0           dense_34[0][0]
__________________________________________________________________________________________________
dropout_40 (Dropout)            (None, 32)           0           dense_42[0][0]
__________________________________________________________________________________________________
dropout_46 (Dropout)            (None, 64)           0           dense_47[0][0]
__________________________________________________________________________________________________
dense_4 (Dense)                 (None, 16)           528         dropout_4[0][0]
__________________________________________________________________________________________________
dense_9 (Dense)                 (None, 32)           2080        dropout_10[0][0]
__________________________________________________________________________________________________
dense_17 (Dense)                (None, 16)           528         dropout_16[0][0]
__________________________________________________________________________________________________
dense_22 (Dense)                (None, 32)           2080        dropout_22[0][0]
__________________________________________________________________________________________________
dense_30 (Dense)                (None, 16)           528         dropout_28[0][0]
__________________________________________________________________________________________________
dense_35 (Dense)                (None, 32)           2080        dropout_34[0][0]
__________________________________________________________________________________________________
dense_43 (Dense)                (None, 16)           528         dropout_40[0][0]
__________________________________________________________________________________________________
dense_48 (Dense)                (None, 32)           2080        dropout_46[0][0]
__________________________________________________________________________________________________
dropout_5 (Dropout)             (None, 16)           0           dense_4[0][0]
__________________________________________________________________________________________________
dropout_11 (Dropout)            (None, 32)           0           dense_9[0][0]
__________________________________________________________________________________________________
dropout_17 (Dropout)            (None, 16)           0           dense_17[0][0]
__________________________________________________________________________________________________
dropout_23 (Dropout)            (None, 32)           0           dense_22[0][0]
__________________________________________________________________________________________________
dropout_29 (Dropout)            (None, 16)           0           dense_30[0][0]
__________________________________________________________________________________________________
dropout_35 (Dropout)            (None, 32)           0           dense_35[0][0]
__________________________________________________________________________________________________
dropout_41 (Dropout)            (None, 16)           0           dense_43[0][0]
__________________________________________________________________________________________________
dropout_47 (Dropout)            (None, 32)           0           dense_48[0][0]
__________________________________________________________________________________________________
concatenate (Concatenate)       (None, 48)           0           dropout_5[0][0]
                                                                 dropout_11[0][0]
__________________________________________________________________________________________________
concatenate_1 (Concatenate)     (None, 48)           0           dropout_17[0][0]
                                                                 dropout_23[0][0]
__________________________________________________________________________________________________
concatenate_2 (Concatenate)     (None, 48)           0           dropout_29[0][0]
                                                                 dropout_35[0][0]
__________________________________________________________________________________________________
concatenate_3 (Concatenate)     (None, 48)           0           dropout_41[0][0]
                                                                 dropout_47[0][0]
__________________________________________________________________________________________________
dense_10 (Dense)                (None, 48)           2352        concatenate[0][0]
__________________________________________________________________________________________________
dense_23 (Dense)                (None, 48)           2352        concatenate_1[0][0]
__________________________________________________________________________________________________
dense_36 (Dense)                (None, 48)           2352        concatenate_2[0][0]
__________________________________________________________________________________________________
dense_49 (Dense)                (None, 48)           2352        concatenate_3[0][0]
__________________________________________________________________________________________________
dense_11 (Dense)                (None, 32)           1568        dense_10[0][0]
__________________________________________________________________________________________________
dense_24 (Dense)                (None, 32)           1568        dense_23[0][0]
__________________________________________________________________________________________________
dense_37 (Dense)                (None, 32)           1568        dense_36[0][0]
__________________________________________________________________________________________________
dense_50 (Dense)                (None, 32)           1568        dense_49[0][0]
__________________________________________________________________________________________________
dense_12 (Dense)                (None, 1)            33          dense_11[0][0]
__________________________________________________________________________________________________
dense_25 (Dense)                (None, 1)            33          dense_24[0][0]
__________________________________________________________________________________________________
dense_38 (Dense)                (None, 1)            33          dense_37[0][0]
__________________________________________________________________________________________________
dense_51 (Dense)                (None, 1)            33          dense_50[0][0]
__________________________________________________________________________________________________
concatenate_4 (Concatenate)     (None, 4)            0           dense_12[0][0]
                                                                 dense_25[0][0]
                                                                 dense_38[0][0]
                                                                 dense_51[0][0]
Total params: 901,032,708
Trainable params: 1,031,684
Non-trainable params: 900,001,024
__________________________________________________________________________________________________
…
